predictive_modeling_processing_time/checkpoints/latest_checkpoint.pth (torch, 18854 bytes, 11 tensors)

feature_extractor.embedding.weight f4 [19, 5]
0.0 0.0 0.0 0.0 0.0 -0.5944401 0.5189796 1.5528255
1.9009092 -0.22477467 0.70761913 1.6410064 -0.33827978 1.0543818 -2.9664314 -0.60095495
2.096698 -2.1852624 -3.2466738 -0.15287724 -2.0256624 -1.5134127 -1.8542072 -2.45923
1.1946532 0.7807079 -1.9536915 -0.5472668 2.0860937 -0.29887193 -0.9085232 -0.7274861
-0.69368035 -0.14979768 -0.89935076 -0.86062455 -1.0681939 -0.4474612 -0.32907772 0.083568215
1.7514931 0.3830508 1.6418402 1.0404719 0.23242615 2.2440689 -3.3637123 -2.471395
2.5064518 -0.5169555 -1.0816032 -0.08385012 2.9966807 -0.1925318 -1.1520602 2.7795346
-1.1885564 -1.4327426 0.40620726 -1.9769989 0.48647186 -0.6162951 2.2226994 2.3379076
0.4505457 -2.6045592 -3.024104 0.064804986 1.1180531 1.9611146 2.8954747 -1.5755053
-1.5523919 1.900366 -2.4181538 0.6760617 0.053162843 -1.7407018 -0.06082548 1.2692941
0.71507645 -0.5306542 2.700321 -0.6733373 -0.019868739 0.09404507 0.7943356 0.5389992
1.0509918 -2.1467087 0.5443711 0.95535004 3.9617145 -2.230391 -3.2564275
00000000: 0000 0000 0000 0000 0000 0000 0000 0000
00000010: 0000 0000 3a2d 18bf d9db 043f fcc2 c63f
00000020: fe50 f33f 552b 66be 8726 353f 7f0c d23f
00000030: 0233 adbe fcf5 863f 03da 3dc0 2fd8 19bf
00000040: 4d30 0640 57db 0bc0 81c9 4fc0 da8b 1cbe
00000050: 74a4 01c0 82b7 c1bf a956 edbf 0664 1dc0
00000060: 65ea 983f 79dc 473f 9012 fabf ad19 0cbf
00000070: 8f82 0540 be05 99be fa94 68bf 873c 3abf
00000080: 0995 31bf 9064 19be da3b 66bf e451 5cbf
00000090: 94ba 88bf a219 e5be e07c a8be d025 ab3d
000000a0: ed30 e03f 3c1f c43e d227 d23f 2f2e 853f
000000b0: 1f01 6e3e d39e 0f40 1047 57c0 562b 1ec0
000000c0: b569 2040 3257 04bf f971 8abf 9db9 abbd
000000d0: 9ec9 3f40 0e27 45be b576 93bf e5e3 3140
000000e0: 9e22 98bf 1c64 b7bf 66fa cf3e 4d0e fdbf
000000f0: d712 f93e 84c5 1dbf b540 0e40 47a0 1540
00000100: edad e63e 19b1 26c0 ec8a 41c0 7ab8 843d
00000110: 5d1c 8f3f ce05 fb3f 754f 3940 28aa c9bf
00000120: c7b4 c6bf 313f f33f 08c3 1ac0 6112 2d3f
00000130: 48c1 593d 51cf debf 2324 79bd 3b78 a23f
00000140: 400f 373f f4d8 07bf 0fd2 2c40 d55f 2cbf
00000150: c4c3 a2bc b49a c03d 9459 4b3f dafb 093f
00000160: e686 863f ad63 09c0 e85b 0b3f d291 743f
00000170: bb8c 7d40 babe 0ec0 4f69 50c0

feature_extractor.lstm.weight_ih_l0 f4 [64, 9]
-0.5071833 -0.68507683 -0.6007622 0.49302697 1.1292717 1.3530722 -0.5987116 0.13283028
0.6072323 0.81434196 0.28983605 -1.4682196 -0.73133373 0.7994164 -0.15735836 0.3220331
-0.31475374 -1.0099207 0.83280206 0.34315115 -0.507096 -0.43429917 -0.695348 1.566333
0.20458172 0.0574566 0.7772334 -0.0036161854 0.27683234 0.66684246 0.25556138 -1.2119769
-0.49895167 -0.88574594 0.04937875 -0.09418673 -1.351758 1.105783 -0.72745514 -0.55530065
-0.09865879 -0.59497213 -0.10627581 -0.04568146 2.1252742 0.4167018 -0.4453585 -0.70338625
-0.050819546 0.011411649 -1.1571206 -0.21875905 -0.13049316 -0.9561303 -0.052300535 0.22857176
-0.07827866 0.10560279 -0.4067439 -1.7126533 -0.38912266 -0.16941412 0.2565842 0.6587658
-0.034495756 0.49796987 -0.6677695 -1.1153749 -0.5863722 0.06603652 -0.38558164 0.39601043
-0.6129584 -0.72146297 -0.12107741 0.6543133 0.58646774 -0.17985123 -0.57890856 -0.15162481
1.2128017 0.46609962 -0.97624636 -0.6621001 1.9691546 -0.08008134 0.8833266 0.5863661
0.0059760637 -0.3244896 0.38577378 -0.6646394 -0.17164096 0.09192546 0.13166036 -0.7407617
0.016532766 0.1110418 -0.56466717 -0.14952111 0.2723739 -0.87440485 -0.6706244 -0.22165193
0.23909426 0.4164435 0.16651735 1.3376665 -0.3412714 -1.072225 0.2046884 -0.37895864
0.40578243 -0.6620991 0.58692706 -0.09179521 -1.9928267 0.057312485 -0.8779894 -1.1284761
0.0154065285 0.09452144 -0.21685407 0.059586998 0.031003673 0.23568434 -0.11384802 0.31559637
-0.087117754 0.040624175 0.41482896 0.43754295 -0.67213446 -0.27428195 2.6477468 0.108629085
-0.7616556 -0.20306025 0.7224133 -0.30973166 0.6208873 -0.449593 0.113428034 1.3341289
-0.14078985 0.20550604 -0.9343848 0.49857423 1.192336 -2.9427488 -0.22669487 -0.038304787
-0.86918396 0.21103513 0.6003922 -0.5094771 -0.90432984 0.39565316 -0.39261168 1.0934168
0.14641993 -1.5822326 -1.2151827 0.685532 0.057690453 -1.612336 -0.7238052 -1.4890506
-0.8134688 0.04506822 -0.24637581 0.08612261 0.09467428 0.016306704 0.6026565 0.8965053
0.82443213 1.3852828 -0.11941791 -1.5472002 0.20567799 0.039943054 -0.312737 0.10269312
0.13293597 1.1471332 -0.25817066 -0.24122782 0.22885205 0.43136612 -0.5093755 1.1617543
0.40525302 -0.665944 -0.0045184353 0.21702896 0.18865336 -0.5848106 1.0853336 -0.72753763
0.3735865 1.2181094 0.3172897 -0.13592106 0.117763184 -0.18320107 -2.349809 -1.1831933
-0.13049494 1.1389196 -0.58806026 -0.53906524 -1.6333188 -0.5934929 -0.25215828 -0.28037745
0.99587697 0.109641165 1.3105806 0.530136 -0.5880011 0.21103406 -0.46182775 0.07805582
-1.0151005 -0.48048526 0.4714611 0.6955207 0.0017781954 0.054484315 -0.21014878 0.024247618
-0.07136307 2.226163 0.23317848 -0.23238622 0.37788436 1.2893826 0.86356694 -0.5745884
0.4734728 -0.23028769 -1.5979627 0.4072242 0.29203868 1.0226566 0.77322274 -0.7150522
-0.30953228 -0.5841928 0.27168852 -1.0924639 0.79447216 -1.4965686 0.7897326 0.30838984
00000000: c4d6 01bf 3261 2fbf 8dcb 19bf 086e fc3e
00000010: fa8b 903f 7831 ad3f 2a45 19bf a904 083e
00000020: 9373 1b3f b778 503f 6465 943e 9fee bbbf
00000030: b038 3bbf 8ea6 4c3f 8d22 21be 86e1 a43e
00000040: 6727 a1be 1545 81bf 8432 553f 82b1 af3e
00000050: 0bd1 01bf 765c debe 5402 32bf 9a7d c83f
00000060: df7d 513e 9d57 6b3d c5f8 463f 86fd 6cbb
00000070: f8bc 8d3e 30b6 2a3f f1d8 823e 0f22 9bbf
00000080: 9876 ffbe 3fc0 62bf 5f41 4a3d f9e4 c0bd
00000090: 6806 adbf 4c8a 8d3f 803a 3abf 2f28 0ebf
000000a0: 9f0d cabd 1850 18bf 22a7 d9bd 7c1c 3bbd
000000b0: 7e04 0840 f059 d53e 0806 e4be 1f11 34bf
000000c0: 2828 50bd edf7 3a3c 871c 94bf 5f02 60be
000000d0: 00a0 05be f5c4 74bf 1639 56bd b70e 6a3e
000000e0: 9050 a0bd 4746 d83d bd40 d0be 3938 dbbf
000000f0: 163b c7be e57a 2dbe 015f 833e e0a4 283f
00000100: 6c4b 0dbd e8f5 fe3e f1f2 2abf 9bc4 8ebf
00000110: 7d1c 16bf 283e 873d f56a c5be e1c1 ca3e
00000120: d7ea 1cbf ccb1 38bf 6ff7 f7bd 1481 273f
00000130: c022 163f ec2a 38be 5a33 14bf 8943 1bbe
00000140: 163d 9b3f 9ca4 ee3e 48eb 79bf 647f 29bf
00000150: 420d fc3f b001 a4bd b121 623f 171c 163f
00000160: dbd2 c33b 8023 a6be 2484 c53e cf25 2abf
00000170: a6c2 2fbe 6a43 bc3d f9d1 063e 8fa2 3dbf
00000180: b96f 873c e269 e33d 078e 10bf 101c 19be
00000190: 9874 8b3e ffd8 5fbf 0aae 2bbf b9f8 62be
000001a0: 20d5 743e 1538 d53e 8683 2a3e a838 ab3f
000001b0: 20bb aebe ab3e 89bf d699 513e de06 c2be
000001c0: b7c2 cf3e 547f 29bf da40 163f 21ff bbbd
000001d0: f214 ffbf 7fc0 6a3d eac3 60bf e871 90bf
000001e0: aa6b 7c3c 7594 c13d fe0e 5ebe 7f11 743d
000001f0: 6afb fd3c 3c57 713e 2729 e9bd d995 a13e
00000200: cb6a b2bd 8965 263d 7664 d43e a105 e03e
00000210: 0111 2cbf af6e 8cbe af74 2940 ed78 de3d
00000220: ddfb 42bf 07ef 4fbe 14f0 383f 2695 9ebe
00000230: 78f2 1e3f 0e31 e6be f54c e83d bcc4 aa3f
00000240: 372b 10be 2d70 523e d833 6fbf 1f45 ff3e
00000250: 779e 983f ff55 3cc0 b322 68be 7be5 1cbd
00000260: d782 5ebf 9819 583e 4eb3 193f 176d 02bf
00000270: 2982 67bf 0d93 ca3e 6604 c9be 15f5 8b3f
00000280: 1bef 153e 9986 cabf 1b8b 9bbf 067f 2f3f
00000290: d34c 6c3d 0761 cebf 4c4b 39bf 3699 bebf
000002a0: 7e3f 50bf 7499 383d f149 7cbe 0d61 b03d
000002b0: 97e4 c13d a395 853c b247 1a3f 5f81 653f
000002c0: fc0d 533f f250 b13f 6191 f4bd a80a c6bf
000002d0: 409d 523e 549b 233d 101f a0be c550 d23d
000002e0: 5e20 083e 43d5 923f f22e 84be 6d04 77be
000002f0: 3158 6a3e 05dc dc3e 6f66 02bf 5db4 943f
00000300: 537d cf3e 4e7b 2abf 620f 94bb d73c 5e3e
00000310: 592e 413e 26b6 15bf 36ec 8a3f e83f 3abf
00000320: bb46 bf3e 02eb 9b3f cc73 a23e e42e 0bbe
00000330: d32d f13d 1099 3bbe 4563 16c0 e172 97bf
00000340: 77a0 05be 1ec8 913f 1e8b 16bf 2e00 0abf
00000350: 9710 d1bf 27ef 17bf e41a 81be a28d 8fbe
00000360: cbf1 7e3f 8c8b e03d 1bc1 a73f feb6 073f
00000370: 3d87 16bf 5019 583e b074 ecbe bbdb 9f3d
00000380: d0ee 81bf 2a02 f6be 5963 f13e a50d 323f
00000390: 5612 e93a f22a 5f3d 3e31 57be f1a2 c63c
000003a0: cd26 92bd 7479 0e40 57c6 6e3e a7f6 6dbe
000003b0: 0f7a c13e 7d0a a53f b912 5d3f 3a18 13bf
000003c0: 076b f23e 89d0 6bbe 0b8a ccbf b17f d03e
000003d0: 1886 953e 69e6 823f edf1 453f a90d 37bf
000003e0: 047b 9ebe a98d 15bf c21a 8b3e dbd5 8bbf
000003f0: 8762 4b3f 8f8f bfbf ea2b 4a3f 46e5 9d3e

feature_extractor.lstm.weight_hh_l0 f4 [64, 16]
0.40316004 -0.69748485 -1.4595033 1.63979 0.6871508 0.014541112 0.9011886 1.1441315
1.8790878 -1.5247846 0.35983002 -0.6735337 -2.1247761 0.18878229 1.3026412 1.0529609
-0.71009165 0.07450364 -0.83665115 0.28579414 -0.45218807 0.67710525 0.33088398 0.29605395
0.49159852 0.5898491 0.056588292 0.5379654 -0.106767625 -0.017886186 0.07775927 -0.25669503
1.0290358 -1.1011986 0.72661656 1.4294325 0.29245842 -0.28488922 0.2978054 -0.6297514
0.7217047 0.16186823 0.5267619 0.5623481 0.019881137 0.08146707 0.47587344 0.09453766
0.94104224 1.0563555 1.4816458 -0.9313025 -0.6485625 0.14740577 -0.20720874 -0.37923545
-0.89365077 0.6794863 -0.7501472 -0.054156538 0.351824 0.19932842 -2.2571583 -0.7245088
-1.1416636 -1.2405276 -0.878857 -0.689497 -0.09271791 1.0571264 0.38066405 -1.823257
1.3092278 -0.26022398 0.058333572 -1.1315509 -0.3968723 -0.28982145 -0.22501218 0.87022704
1.1309918 -0.27949232 -1.610647 0.72268736 -0.75575775 -0.81354517 -0.6194066 1.9606109
0.20364854 -1.7483367 -1.2566649 -1.0841101 1.0055001 1.0834213 0.30713508 0.7752874
-0.055223603 0.2983382 -0.77906185 1.290291 -0.28065613 -0.04255362 -0.7659033 1.3564941
-0.02758278 -0.93312496 -1.2056224 -0.2986325 -0.3906358 0.57088405 -0.10239405 0.25211054
-1.7672389 -1.6443563 -0.7306595 0.1501375 1.2239136 0.2836048 -0.66487026 -0.111098565
0.40187332 -1.1432518 -0.1007131 0.5118719 0.2157836 1.0283244 1.4615518 -0.5897991
0.5965638 0.23686047 -0.34829047 0.58487076 0.3550405 0.149277 -0.8710515 -0.60831875
-1.3888017 0.4615074 -0.38542092 -1.2620934 -1.0294645 0.19538394 -0.33406872 -0.22722407
-0.91636616 -0.9026664 -0.09213719 1.1401926 -0.21517563 0.43629697 0.7270272 -0.49955708
0.13945873 -1.519725 0.93458825 0.6106495 -0.54251015 -0.53899276 0.5117897 0.13829374
-2.0314856 0.35689697 -2.0146663 0.29443666 -0.8982282 0.20931838 -0.24246964 0.40393406
-1.0593653 -2.1030087 -0.6053983 0.34614727 -0.1488733 0.6270625 -0.06676682 -0.63247484
-1.5474323 -0.34914345 -0.8761466 0.8680799 0.5747341 0.6953078 0.5592459 -0.105018236
0.31716505 -0.69933254 0.29761934 -0.19950937 -0.7172776 -0.14685655 1.0673776 0.1540406
0.8852547 0.79879916 -0.25107142 0.58734894 -0.73322177 -0.29624146 -0.6351169 1.2704089
-0.76219636 -0.5120801 -1.0916799 -1.1512184 0.15012157 0.655825 -0.6805014 0.3380896
-0.61906654 0.09206794 -0.24174847 1.8234138 -0.09441442 -0.30552447 0.15150912 -0.52941704
-0.18436237 -0.32094178 0.45418787 0.024780536 -0.8971548 -0.20746261 0.6013144 -0.65943927
0.17198166 -0.805325 -0.6292407 1.0457859 0.65375185 0.49081838 0.51499504 -0.45085227
1.219725 -0.5681504 0.08364241 -0.22854413 -0.62285554 0.019828247 0.3841509 0.48358274
-0.9645065 -1.6266012 -0.32751653 -0.16797659 0.42539445 0.8496579 0.18423046 -1.1629028
0.20705152 -0.04419564 0.41111785 0.4672621 -0.06588364 0.74769485 0.45687494 -0.8532301
00000000: fe6a ce3e 5e8e 32bf 01d1 babf a4e4 d13f
00000010: 1de9 2f3f d83d 6e3c 4cb4 663f e772 923f
00000020: f385 f03f 242c c3bf a43b b83e b46c 2cbf
00000030: 55fc 07c0 2550 413e f2bc a63f 6cc7 863f
00000040: 91c8 35bf 5d95 983d c52e 56bf 9c53 923e
00000050: 3285 e7be c556 2d3f a069 a93e 6294 973e
00000060: cdb2 fb3e 5a00 173f 20c9 673d 1ab8 093f
00000070: fca8 dabd 0d86 92bc 4140 9f3d 886d 83be
00000080: 72b7 833f 13f4 8cbf 8b03 3a3f a5f7 b63f
00000090: 1cbd 953e 00dd 91be f379 983e 6337 21bf
000000a0: a4c1 383f c9c0 253e ded9 063f 0cf6 0f3f
000000b0: c4dd a23c 35d8 a63d afa5 f33e f69c c13d
000000c0: 25e8 703f a836 873f 92a6 bd3f d769 6ebf
000000d0: 3108 26bf 8af1 163e 872e 54be 262b c2be
000000e0: 4cc6 64bf d0f2 2d3f a609 40bf 3fd3 5dbd
000000f0: 4622 b43e c01c 4c3e 4875 10c0 6979 39bf
00000100: 0822 92bf 9cc9 9ebf c6fc 60bf e082 30bf
00000110: e3e2 bdbd eb4f 873f 66e6 c23e 7c60 e9bf
00000120: c794 a73f 143c 85be 2fef 6e3d a9d6 90bf
00000130: d932 cbbe 7a63 94be 9869 66be 33c7 5e3f
00000140: 57c4 903f 9e19 8fbe ae29 cebf 0a02 393f
00000150: 5779 41bf 7f44 50bf 6e91 1ebf 4cf5 fa3f
00000160: 3e89 503e 7fc9 dfbf 65da a0bf 1fc4 8abf
00000170: 3ab4 803f 8dad 8a3f cf40 9d3e 3c79 463f
00000180: 2532 62bd c9bf 983e 9970 47bf 4128 a53f
00000190: 29b2 8fbe b44c 2ebd 3d12 44bf 99a1 ad3f
000001a0: 48f5 e1bc 47e1 6ebf d651 9abf 5ce6 98be
000001b0: 6a01 c8be 7525 123f f9b3 d1bd a214 813e
000001c0: e234 e2bf 447a d2bf 800c 3bbf a5bd 193e
000001d0: 33a9 9c3f a634 913e f034 2abf a587 e3bd
000001e0: 57c2 cd3e 1356 92bf ab42 cebd 090a 033f
000001f0: 60f6 5c3e 22a0 833f 2114 bb3f 13fd 16bf
00000200: 68b8 183f 8d8b 723e 2153 b2be 17ba 153f
00000210: dec7 b53e 12dc 183e 3bfd 5ebf c7ba 1bbf
00000220: 41c4 b1bf b34a ec3e e455 c5be 478c a1bf
00000230: 7ec5 83bf ba12 483e 0e0b abbe 6dad 68be
00000240: f996 6abf 2515 67bf 6cb2 bcbd d5f1 913f
00000250: 0057 5cbe 5162 df3e 741e 3a3f f2c5 ffbe
00000260: 45ce 0e3e 5986 c2bf 2d41 6f3f 8753 1c3f
00000270: f2e1 0abf 6efb 09bf a604 033f e09c 0d3e
00000280: dc03 02c0 33bb b63e 4bf0 00c0 67c0 963e
00000290: 49f2 65bf 8f57 563e f649 78be 72d0 ce3e
000002a0: 4899 87bf b297 06c0 62fb 1abf 373a b13e
000002b0: 3e72 18be 2b87 203f 0bbd 88bd dfe9 21bf
000002c0: 4312 c6bf eec2 b2be 254b 60bf 7c3a 5e3f
000002d0: c621 133f b1ff 313f bd2a 0f3f cd13 d7bd
000002e0: 7563 a23e 7507 33bf 9061 983e 2f4c 4cbe
000002f0: 819f 37bf 9061 16be d49f 883f d2bc 1d3e
00000300: 0da0 623f 1a7e 4c3f 6f8c 80be 805c 163f
00000310: 6cb4 3bbf f6ac 97be 0597 22bf c29c a23f
00000320: 4d1f 43bf ae17 03bf 2bbc 8bbf 205b 93bf
00000330: 78b9 193e 26e4 273f 5735 2ebf 141a ad3e
00000340: 257b 1ebf 1e8e bc3d e98c 77be a065 e93f
00000350: 595c c1bd b46d 9cbe 3525 1b3e e087 07bf
00000360: 7dc9 3cbe 7b52 a4be 508b e83e 8d00 cb3c
00000370: f0ab 65bf 1471 54be beef 193f 03d1 28bf
00000380: f61b 303e c729 4ebf eb15 21bf 50dc 853f
00000390: 485c 273f 8c4c fb3e b7d6 033f 1cd6 e6be
000003a0: f31f 9c3f 4e72 11bf b64c ab3d 7907 6abe
000003b0: 7673 1fbf d96e a23c 6daf c43e 2898 f73e
000003c0: e6e9 76bf 7834 d0bf 3fb0 a7be 0e02 2cbe
000003d0: 4dcd d93e 2e83 593f e9a6 3c3e 00da 94bf
000003e0: 5005 543e 7d06 35bd 0a7e d23e fa3c ef3e
000003f0: 00ee 86bd ee68 3f3f 83eb e93e 4a6d 5abf

feature_extractor.lstm.bias_ih_l0 f4 [64]
-0.5458819 -0.1057918 -0.9537351 0.064179696 -0.30271962 0.12192184 0.18839832 0.065090574
-1.000312 -0.46935594 -0.1526947 -0.4229389 0.13378887 -0.3886475 -0.5702305 -0.71148825
0.7122763 -0.8655079 0.4268689 -0.562594 -0.1162668 0.1652426 -0.07075981 0.31233084
0.304448 0.592515 0.36092702 0.12530237 -0.3578722 0.0010020017 -0.40434054 -0.22325289
0.18848744 0.26243156 0.011766065 -0.14854702 0.011898755 -0.47828686 -0.31019858 -0.03596604
-0.17524646 0.09480893 -0.409335 0.06520683 0.21524377 -0.11548461 0.26679027 -0.1311015
0.106646314 -0.75378406 0.20258193 -0.19626245 -0.3581503 -0.072434634 0.27875444 -0.13736723
-0.3561801 0.47460413 0.3856602 0.016913481 0.069669105 -0.012841871 0.19105087 -0.121090904
00000000: ebbe 0bbf 5fa9 d8bd fc27 74bf a570 833d
00000010: 11fe 9abe 28b2 f93d 7deb 403e 354e 853d
00000020: 390a 80bf 6c4f f0be 005c 1cbe 738b d8be
00000030: f3ff 083e cefc c6be a0fa 11bf 1824 36bf
00000040: bd57 363f ed91 5dbf 8f8e da3e 2906 10bf
00000050: 4a1d eebd 5b35 293e 85ea 90bd d4e9 9f3e
00000060: 9ce0 9b3e 10af 173f 6dcb b83e 444f 003e
00000070: 063b b7be 9955 833a b905 cfbe 689c 64be
00000080: da02 413e 6e5d 863e 74c6 403c b61c 18be
00000090: fff2 423c 04e2 f4be 59d2 9ebe 2051 13bd
000000a0: cf73 33be 2f2b c23d 5b94 d1be 298b 853d
000000b0: dd68 5c3e 3283 ecbd bc98 883e 793f 06be
000000c0: 6269 da3d fef7 40bf a371 4f3e 06f9 48be
000000d0: 7a5f b7be 9c58 94bd e7b8 8e3e ffa9 0cbe
000000e0: 3d5d b6be 50ff f23e 4175 c53e 248e 8a3c
000000f0: adae 8e3d b666 52bc d7a2 433e 82fe f7bd

feature_extractor.lstm.bias_hh_l0 f4 [64]
-0.78568953 -0.1912585 -0.80092597 0.049874824 -0.6909693 -0.064637974 -0.11673498 -0.1565055
-0.9382808 -0.30853403 0.011298452 -0.6400508 -0.24487826 -0.19556205 -0.80883646 -0.5332686
0.76241726 -0.4546099 0.2895107 -0.561431 -0.30569568 0.03863337 -0.17719455 0.039957993
0.21547593 0.34259638 0.19667068 0.09571756 -0.31743705 0.32345662 -0.47585514 0.05775369
0.08307988 -0.013787499 0.119314656 -0.13807209 0.0612744 -0.34805843 -0.079650395 0.19918467
0.15393378 0.45088357 -0.012584572 -0.06709211 0.22603701 0.24020566 -0.064465776 0.059922226
-0.03254106 -0.871163 -0.040077914 0.0116513185 -0.2730624 0.050449494 -0.11192783 -0.09887888
-0.35340247 0.31267473 0.2747217 -0.24275686 0.15148231 -0.22829673 0.118968874 -0.53804314
00000000: f322 49bf 45d9 43be 7c09 4dbf 8b49 4c3d
00000010: 5de3 30bf ea60 84bd c012 efbd fa42 20be
00000020: 2c33 70bf 2cf8 9dbe 241d 393c 5fda 23bf
00000030: 5ec1 7abe 6b41 48be e80f 4fbf 4a84 08bf
00000040: c72d 433f a1c2 e8be bf3a 943e f1b9 0fbf
00000050: 2584 9cbe 063e 1e3d 7d72 35be feaa 233d
00000060: b9a5 5c3e cb68 af3e 0a64 493e 9107 c43d
00000070: 1c87 a2be 1b9c a53e 49a3 f3be 228f 6c3d
00000080: c925 aa3d f6e4 61bc 3e5b f43d c562 0dbe
00000090: defa 7a3d b734 b2be bf1f a3bd 11f7 4b3e
000000a0: d1a0 1d3e 36da e63e 852f 4ebc 9767 89bd
000000b0: 3f76 673e 79f8 753e a206 84bd 0271 753d
000000c0: c649 05bd 8a04 5fbf bd28 24bd 2ce5 3e3c
000000d0: d6ce 8bbe 21a4 4e3d 6b3a e5bd 0381 cabd
000000e0: 2bf1 b4be e716 a03e 53a8 8c3e 4195 78be
000000f0: 2e1e 1b3e 9ec6 69be f4a5 f33d 32bd 09bf

feature_extractor.linear.weight f4 [2, 16]
-0.4949059 -0.22665106 0.3791873 -0.03114861 -0.1482249 0.18882869 -0.15915184 -0.29531845
0.70653415 -0.46660754 0.31640637 0.38376048 0.06266093 0.25880188 -0.11248137 -0.5990984
-0.19017641 0.0407186 0.541436 0.29552442 0.41074204 0.14700176 0.53898776 -0.16194154
-0.119061895 0.76810145 0.5615315 0.2318643 -0.20460038 -0.11698949 -0.35172233 -0.40661234
00000000: 4e64 fdbe 3717 68be d624 c23e 5f2b ffbc
00000010: 45c8 17be 4f5c 413e b3f8 22be fb33 97be
00000020: 6cdf 343f 2fe7 eebe 0400 a23e 417c c43e
00000030: 6054 803d ae81 843e a25c e6bd 835e 19bf
00000040: 9bbd 42be 8cc8 263d 8d9b 0a3f fa4e 973e
00000050: c84c d23e a187 163e 1afb 093f 01d4 25be
00000060: b9d6 f3bd 4ca2 443f 87c0 0f3f d66d 6d3e
00000070: c382 51be 3098 efbd f314 b4be 7e2f d0be

feature_extractor.linear.bias f4 [2]
0.28930393 -0.29329768
00000000: a51f 943e 1d2b 96be

gp_layer.variational_strategy.inducing_points f4 [20, 2]
-0.06745144 0.011057923 1.5739996 -0.8465306 0.72350943 0.68190813 0.3608587 -0.044033885
-0.08101379 -0.6990997 0.22559799 0.32363582 0.35782728 0.86056674 -1.036533 -0.041908704
0.94886315 -0.34349614 -1.2495941 -3.352992 0.41423872 -1.0417981 -1.2297041 0.2102282
0.4577155 -1.8513725 1.6341546 0.029678246 0.34666738 -0.65658396 -1.1264164 0.80611616
-0.13691768 -2.076669 -0.44424167 -1.0515047 1.3475505 -1.0613872 -0.47822452 0.7947575
00000000: fb23 8abd 4a2c 353c d278 c93f 3bb6 58bf
00000010: ea37 393f 8891 2e3f 79c2 b83e e05c 34bd
00000020: 8fea a5bd 33f8 32bf 2903 673e 98b3 a53e
00000030: 2335 b73e 1a4e 5c3f 1dad 84bf 76a8 2bbd
00000040: b2e8 723f bade afbe b3f2 9fbf 6c97 56c0
00000050: 1917 d43e a459 85bf f266 9dbf 1046 573e
00000060: b059 ea3e c6f9 ecbf fa2b d13f cb1f f33c
00000070: 637e b13e e315 28bf 6a2e 90bf a15d 4e3f
00000080: 2634 0cbe 25e8 04c0 a573 e3be b597 86bf
00000090: 897c ac3f 89db 87bf d8d9 f4be 3a75 4b3f

gp_layer.variational_strategy._variational_distribution.variational_mean f4 [20]
0.77776587 -0.64144486 1.9009196 -0.17756791 -1.0323431 -2.2081354 -1.2430131 -0.14096013
0.14128429 0.6473301 -0.81262845 1.2063118 0.8095171 1.000789 0.08005158 2.335708
-1.0030085 1.8260266 1.8012404 1.9456462
00000000: aa1b 473f bb35 24bf 5551 f33f 5dd4 35be
00000010: d223 84bf 1752 0dc0 0e1b 9fbf da57 10be
00000020: d4ac 103e 6db7 253f 6b08 50bf 6d68 9a3f
00000030: 833c 4f3f db19 803f 15f2 a33d 3d7c 1540
00000040: 9562 80bf 3dbb e93f 0c8f e63f ef0a f93f

gp_layer.variational_strategy._variational_distribution.chol_variational_covar f4 [20, 20]
0.041074324 0.0 0.0 0.0 0.0 0.0 0.0 0.0
0.0 0.0 0.0 0.0 0.0 0.0 0.0 0.0
0.0 0.0 0.0 0.0 0.10485638 0.4693942 0.0 0.0
0.0 0.0 0.0 0.0 0.0 0.0 0.0 0.0
0.0 0.0 0.0 0.0 0.0 0.0 0.0 0.0
-0.037566658 -0.02285716 0.021777067 0.0 0.0 0.0 0.0 0.0
0.0 0.0 0.0 0.0 0.0 0.0 0.0 0.0
0.0 0.0 0.0 0.0 -0.28747925 -0.33004424 -0.008670017 0.03306748
0.0 0.0 0.0 0.0 0.0 0.0 0.0 0.0
0.0 0.0 0.0 0.0 0.0 0.0 0.0 0.0
-0.05319236 -0.1012163 0.017255306 -0.024805723 0.06380129 0.0 0.0 0.0
0.0 0.0 0.0 0.0 0.0 0.0 0.0 0.0
0.0 0.0 0.0 0.0 -0.017924804 0.009248698 -0.040304042 -0.04383483
0.076371856 0.07143543 0.0 0.0 0.0 0.0 0.0 0.0
0.0 0.0 0.0 0.0 0.0 0.0 0.0 0.0
0.11581983 0.03886466 0.36718696 0.11101919 0.029880352 0.112543136 0.21926174 0.0
0.0 0.0 0.0 0.0 0.0 0.0 0.0 0.0
0.0 0.0 0.0 0.0 0.39614692 -0.33150446 0.09489455 0.07987739
0.22891048 -0.2871742 0.063889824 0.25271258 0.0 0.0 0.0 0.0
0.0 0.0 0.0 0.0 0.0 0.0 0.0 0.0
0.22629486 -0.2425336 -0.10508509 -0.2592654 0.025856582 0.2507808 0.08754694 -0.13844137
0.2714777 0.0 0.0 0.0 0.0 0.0 0.0 0.0
0.0 0.0 0.0 0.0 0.089461744 -0.020594608 -0.0060517136 0.11485334
0.05573601 0.055609155 -0.012710112 0.020971691 0.10258825 1.0023252 0.0 0.0
0.0 0.0 0.0 0.0 0.0 0.0 0.0 0.0
-0.03671974 -0.47353324 0.019971129 0.08100157 -0.16293693 -0.07518687 -0.012354055 0.022935351
-0.036804 -0.017997326 0.020964572 0.0 0.0 0.0 0.0 0.0
0.0 0.0 0.0 0.0 0.58101654 0.34860805 0.036231663 0.0969457
-0.08318777 -0.10851841 -0.049966536 0.13809761 -0.033674467 0.0068716425 0.3662926 0.55578524
0.0 0.0 0.0 0.0 0.0 0.0 0.0 0.0
-0.13118888 0.27557072 0.16263299 -0.07596247 0.16778217 0.20305316 0.031522386 0.014304663
0.016340116 -0.086860344 0.36340174 0.089057736 0.22338265 0.0 0.0 0.0
00000000: 8d3d 283d 0000 0000 0000 0000 0000 0000
00000010: 0000 0000 0000 0000 0000 0000 0000 0000
00000020: 0000 0000 0000 0000 0000 0000 0000 0000
00000030: 0000 0000 0000 0000 0000 0000 0000 0000
00000040: 0000 0000 0000 0000 0000 0000 0000 0000
00000050: f1be d63d 7054 f03e 0000 0000 0000 0000
00000060: 0000 0000 0000 0000 0000 0000 0000 0000
00000070: 0000 0000 0000 0000 0000 0000 0000 0000
00000080: 0000 0000 0000 0000 0000 0000 0000 0000
00000090: 0000 0000 0000 0000 0000 0000 0000 0000
000000a0: 7fdf 19bd f03e bbbc d265 b23c 0000 0000
000000b0: 0000 0000 0000 0000 0000 0000 0000 0000
000000c0: 0000 0000 0000 0000 0000 0000 0000 0000
000000d0: 0000 0000 0000 0000 0000 0000 0000 0000
000000e0: 0000 0000 0000 0000 0000 0000 0000 0000
000000f0: 7b30 93be 8ffb a8be b00c 0ebc c471 073d
00000100: 0000 0000 0000 0000 0000 0000 0000 0000
00000110: 0000 0000 0000 0000 0000 0000 0000 0000
00000120: 0000 0000 0000 0000 0000 0000 0000 0000
00000130: 0000 0000 0000 0000 0000 0000 0000 0000
00000140: 3be0 59bd 7e4a cfbd 005b 8d3c 5f35 cbbc
00000150: 40aa 823d 0000 0000 0000 0000 0000 0000
00000160: 0000 0000 0000 0000 0000 0000 0000 0000
00000170: 0000 0000 0000 0000 0000 0000 0000 0000
00000180: 0000 0000 0000 0000 0000 0000 0000 0000
00000190: 0ad7 92bc da87 173c da15 25bd 278c 33bd
000001a0: d968 9c3d bd4c 923d 0000 0000 0000 0000
000001b0: 0000 0000 0000 0000 0000 0000 0000 0000
000001c0: 0000 0000 0000 0000 0000 0000 0000 0000
000001d0: 0000 0000 0000 0000 0000 0000 0000 0000
000001e0: f232 ed3d 8d30 1f3d eeff bb3e 075e e33d
000001f0: a4c7 f43c 047d e63d 2686 603e 0000 0000
00000200: 0000 0000 0000 0000 0000 0000 0000 0000
00000210: 0000 0000 0000 0000 0000 0000 0000 0000
00000220: 0000 0000 0000 0000 0000 0000 0000 0000
00000230: c5d3 ca3e f4ba a9be 1358 c23d c296 a33d
00000240: 8267 6a3e 7f08 93be abd8 823d 8b63 813e
00000250: 0000 0000 0000 0000 0000 0000 0000 0000
00000260: 0000 0000 0000 0000 0000 0000 0000 0000
00000270: 0000 0000 0000 0000 0000 0000 0000 0000
00000280: d7b9 673e ba5a 78be da36 d7bd 6fbe 84be
00000290: 2fd1 d33c 5766 803e cf4b b33d 93c3 0dbe
000002a0: 20ff 8a3e 0000 0000 0000 0000 0000 0000
000002b0: 0000 0000 0000 0000 0000 0000 0000 0000
000002c0: 0000 0000 0000 0000 0000 0000 0000 0000
000002d0: b837 b73d 06b6 a8bc 744d c6bb 3a38 eb3d
000002e0: 714b 643d 6dc6 633d 133e 50bc d3cc ab3c
000002f0: ca19 d23d 314c 803f 0000 0000 0000 0000
00000300: 0000 0000 0000 0000 0000 0000 0000 0000
00000310: 0000 0000 0000 0000 0000 0000 0000 0000
00000320: 7067 16bd f372 f2be 7e9a a33c 27e4 a53d
00000330: f0d8 26be 93fb 99bd aa68 4abc ebe2 bb3c
00000340: cbbf 16bd 216f 93bc e5bd ab3c 0000 0000
00000350: 0000 0000 0000 0000 0000 0000 0000 0000
00000360: 0000 0000 0000 0000 0000 0000 0000 0000
00000370: 80bd 143f c17c b23e a767 143d 788b c63d
00000380: 595e aabd e63e debd b6a9 4cbd 7669 0d3e
00000390: 3dee 09bd 842b e13b b48a bb3e f147 0e3f
000003a0: 0000 0000 0000 0000 0000 0000 0000 0000
000003b0: 0000 0000 0000 0000 0000 0000 0000 0000
000003c0: 6156 06be 9b17 8d3e 4389 263e 3692 9bbd
000003d0: 17cf 2b3e 2bed 4f3e 9e1d 013d 1b5e 6a3c
000003e0: b5db 853c d6e3 b1bd cb0f ba3e e763 b63d
000003f0: 6cbe 643e 0000 0000 0000 0000 0000 0000

gp_layer.covar_module.base_kernel.raw_lengthscale f4 [1, 2]
0.8962518 0.5029357
00000000: c270 653f 65c0 003f
